spkemb/cmu_us_rms_arctic-wav-arctic_b0353.npy (npy, 2176 bytes, 1 tensors)

array f4 [512]
00000000: d871 9ebd b9f1 3e3c 82b5 593d 5e71 4f3d
00000010: c64d 203c 81d2 a2bc 7ea8 31bd 5bd1 d13c
00000020: 41c2 0f3c eebd 853c 7f2d 7bbd e306 a0bd
00000030: dc0f 8a3d 901d 083d 6348 2f3d a6ed 1a3d
00000040: 1f89 a6bb 8884 863c 14c6 1d3c a885 eb3a
00000050: 16dc 103d 0d58 893c 3c43 68bc 9476 05bd
00000060: 7ce5 80bd ac83 00bc d9ed 84bd 39cb 8cbc
00000070: d647 b43d b861 673c f4e3 5dbb f5ed 433d
00000080: 9e86 843c 7662 c8bb 9c8b 4a3d 25b1 93bd
00000090: ece7 503d 8695 fd3c f3cf 5a3b e864 74bd
000000a0: cead 293b 57c0 343c 1675 023d a6d6 5f3d
000000b0: c533 1e3d 4065 ccbd ea3f 8abc fd79 5e3c
000000c0: 3ca9 b0bd 63aa 473d 41a2 813c c0f9 d23c
000000d0: 2dcd 6839 584a 253d 73ba bcbd 3eed 10bd
000000e0: 94ee 01bd ed06 1a3d 44ce 063d 67a3 9e38
000000f0: a3ec d13c db18 03bc b2d7 3ebc 061b f03b
00000100: a382 e33c 1034 5a3d 5747 303d f45d d8bc
00000110: 5ad3 81bd 3254 52bd 88fc 383c 48e3 2a3c
00000120: 0ff3 803c 1d54 4f3c e8c5 fd3c 6031 c73c
00000130: 9746 6b3c 4108 073d 03c1 32bd 8b9d 9abd
00000140: 9c2b 9abd 2bd5 4dbd 161a 71bd fa87 87bd
00000150: 5365 f5bc cb5e 6ebd 101b 4cbd 7d9e 873d
00000160: 97ab fd3c c369 7bbc baab f43c 665a a2bd
00000170: 9df6 3abb bffc a2bd 60f9 da3c 9093 a7bc
00000180: 99e6 133d 2a59 4d3d d590 6ebd 2fdd 92bd
00000190: 183e a53c 4e96 82bd c4fe d0bd e514 003d
000001a0: e4c8 393d 7e60 f83c 9c95 253d caf4 413d
000001b0: 4e22 7e3d d812 003d 4f65 bdbd 3dd3 473c
000001c0: 25b5 a03d 4a39 ae3a 6ede 853d 5962 5e3d
000001d0: fab0 89bd 2c7a df3c d841 87bd a5cf 0e3d
000001e0: f3f1 703c 2c22 5cbd 4387 ff3c 4c89 443d
000001f0: 70da 7abd fe7d 2a3d 5779 bdbd 03a8 103d
00000200: c3d9 573d 6324 553d 1627 22bc a56f ff3b
00000210: 47ab 413d 35fb 4e3d bfa9 b63c 8e8c 70bd
00000220: 1d0b 78bd b50c 1f3c 8c8e a0bd 96a5 0cbd
00000230: 61c3 b63b 6473 a13b f0a4 04bd eba8 4a3d
00000240: 6138 89bd 924c 013d 7563 793b 3697 1dbc
00000250: 92c5 da3c b7a1 cfbd b423 463d e787 53bd
00000260: a79c 94bd 2a23 003d ad95 cf3c 456f 6b3c
00000270: 1b29 2c3d 92fd 4ebd fd20 cfbd 8ee2 1b3d
00000280: 663a d83b 7ded 5abc a411 eb3c cee9 613c
00000290: 07ee b23c f7ed b53b 92b6 453d de77 f33c
000002a0: 6066 1c3d 3854 443d f8e7 ff3c df51 72bd
000002b0: 6559 dd3c ea07 90bd 2ddf 87bc 95ef aebb
000002c0: 76d2 5dbd ff53 fd3c de07 533d 461c a6bd
000002d0: 1724 a23c 3d05 60bd 739e 403c e6b2 f53c
000002e0: 5e65 abbd 8a97 28bc 725f 293d 5596 e33c
000002f0: 785e 38bd 2d54 14bd 0ccb 873c e742 f03c
00000300: bc83 98bd c288 223d b874 283c 796c dd3c
00000310: 11e6 413c 44ab babb 7210 bf3c 954a d2bc
00000320: 0da6 b23c 2b9a 5b3b d615 97bd 79b8 3c3c
00000330: 7a80 b83a 25c0 7d3c 0d8a 473d 445f c4bc
00000340: 8960 c73c 4d3d 91bc 94fc 1d3b 130f a1bd
00000350: d939 80bd 8190 2e3d ab63 70bd 5ca0 443d
00000360: de72 e33c b1e8 93bd 7554 a53c 9f47 3c3d
00000370: 70ec 87bd d763 063d 7876 9ebd a2e3 73bd
00000380: 2824 51bd f1af 4f3d 8bbe 8b3d feba 743d
00000390: daa1 3f3d 7d8f de3c 40ae 37bb 904d 493c
000003a0: 682d 823c 3d67 45bb 7022 bb3c 2477 4d3c
000003b0: cd49 1e3d 85a0 da3c 520e 313b a4e4 5c3d
000003c0: e65e 69bd 4f02 a83c 123c b4bd 9048 aa3c
000003d0: ee69 9abd 70cb 1c3d a7b8 ed3c aa03 043d
000003e0: aafb c63c 379c 583d a309 173d dd86 5e3c
000003f0: 8a68 fd3b 0501 35bd adb7 af3b 588b 303d
-0.07736558 0.011654311 0.053151615 0.050645225 0.009784168 -0.019875767 -0.043373577 0.025612524
0.008774341 0.016325917 -0.061322685 -0.078138135 0.06741306 0.033231318 0.042793643 0.037824295
-0.005082264 0.016420618 0.009629745 0.001796891 0.03536614 0.016765619 -0.014176186 -0.032583788
-0.06293771 -0.007843893 -0.06490678 -0.017186748 0.08802764 0.014122419 -0.0033857794 0.047834355
0.016177472 -0.006115253 0.049449548 -0.07211522 0.051002428 0.030955087 0.0033388108 -0.059666544
0.002589095 0.0110321855 0.031849943 0.054648064 0.03862359 -0.099802494 -0.01687618 0.013578889
-0.08626029 0.048746478 0.015824439 0.025753856 0.00022201678 0.040354103 -0.0921525 -0.0353825
-0.031721666 0.03760426 0.032911554 7.564463e-05 0.025625532 -0.0080015315 -0.011648105 0.00732744
0.027772253 0.053272307 0.043036785 -0.026411988 -0.0633914 -0.051349826 0.011290677 0.010430165
0.0157409 0.0126543315 0.030978158 0.024315536 0.014360092 0.032966856 -0.0436411 -0.0754958
-0.07527849 -0.05025212 -0.058862768 -0.06617732 -0.029955542 -0.05819587 -0.049830496 0.06622026
0.03096561 -0.01534504 0.029867042 -0.079273984 -0.002852834 -0.07958364 0.02673024 -0.020456105
0.036108587 0.05013386 -0.05824359 -0.07171094 0.02017121 -0.063763246 -0.10204843 0.031269927
0.0453576 0.030319449 0.04042588 0.04735259 0.062044434 0.03126797 -0.09247839 0.012196359
0.078470506 0.001329222 0.06536566 0.05429301 -0.06723209 0.027279936 -0.066043556 0.034865994
0.014706123 -0.053743526 0.031192428 0.0479825 -0.061243474 0.04162406 -0.09251659 0.03531648
0.052697908 0.052036654 -0.009897014 0.0077952915 0.047282483 0.05053254 0.022297738 -0.058727793
-0.060557473 0.009707619 -0.07839689 -0.034337603 0.00557749 0.0049270857 -0.03238386 0.0494775
-0.067002065 0.031567164 0.0038053666 -0.009618571 0.026705537 -0.101382665 0.048373893 -0.05164328
-0.072564416 0.031283535 0.025339926 0.01436979 0.04203139 -0.050534792 -0.10113714 0.038057856
0.0065987585 -0.013362286 0.028694935 0.013788654 0.021842016 0.0055520493 0.048269816 0.029720243
0.03818357 0.04793188 0.031238541 -0.05916011 0.027020166 -0.070327595 -0.01658591 -0.005338619
-0.05415579 0.030923842 0.051521175 -0.081108615 0.0197926 -0.054692496 0.011756527 0.029992532
-0.08368944 -0.010290036 0.04135079 0.027781645 -0.045011967 -0.03621309 0.016576312 0.029328777
-0.07447001 0.039681204 0.010281734 0.027029263 0.011834637 -0.005696686 0.023323271 -0.02567033
0.021807695 0.003350864 -0.07377212 0.011518591 0.0014076375 0.015487705 0.04871564 -0.023971207
0.024338024 -0.017729426 0.0024106847 -0.07864203 -0.062610336 0.04261828 -0.0586888 0.048004493
0.027764734 -0.07222117 0.020181874 0.04596674 -0.06636894 0.03281006 -0.0773744 -0.05954326
-0.051059872 0.0507049 0.068234526 0.059748642 0.046785213 0.02716803 -0.0028027445 0.012286559
0.015890792 -0.003012135 0.02284357 0.012540612 0.0386446 0.02668787 0.0027016592 0.053928986
-0.056975268 0.020508913 -0.0880052 0.020786554 -0.07539736 0.03827995 0.029018713 0.032230057
0.024289925 0.052883353 0.036874425 0.013581959 0.0077334093 -0.044190425 0.005362472 0.04310164
