spkemb/cmu_us_ksp_arctic-wav-arctic_b0087.npy (npy, 2176 bytes, 1 tensors)

array f4 [512]
-0.078262076 0.012481373 0.023280436 0.026089821 0.065262415 -0.03755321 -0.078639895 -0.011489153
0.025123706 0.01766027 -0.04627039 -0.07316421 0.049797256 0.03583317 0.049482524 0.057869636
-0.009493421 0.044683326 0.016068384 0.020122161 0.036346395 0.042064365 -0.014637021 -0.03762505
-0.05557775 -0.008158572 -0.050529547 -0.010944619 0.0723443 0.017100072 -0.0030814924 0.056356724
0.025626982 0.028067857 0.047333416 -0.043839805 0.028973756 0.059062086 -0.0015913466 -0.06359496
0.025702344 -0.007018627 0.0084231375 0.03534888 0.03286618 -0.117168285 -0.01877537 0.013345232
-0.09176895 0.03618255 -0.0009990677 0.035754755 -0.015869401 0.012880767 -0.09682894 -0.04717372
-0.036827017 0.04280654 0.03578757 -0.008087185 0.024678864 -0.008801038 -0.01837996 0.023049772
0.03273497 0.01064316 0.033218827 -0.03432462 -0.058295466 -0.053921603 -0.0005057627 0.013097324
0.05069472 0.012423316 0.005702671 0.031223511 0.017727952 0.018263573 -0.06835714 -0.07401772
-0.070803046 -0.0729783 -0.06288117 -0.052729484 -0.035140738 -0.055753488 -0.05638398 0.021311156
0.014251088 -0.027846495 0.029861229 -0.078089096 0.015009975 -0.066938005 0.020706326 -0.013297054
0.027061673 0.029936302 -0.051491998 -0.044519614 0.034355387 -0.051468033 -0.074706666 0.0036021366
0.042085823 0.027068788 0.043873526 0.042636704 0.04970224 0.022647534 -0.07130972 -0.0071183047
0.07436486 -0.010015826 0.06105438 0.06908157 -0.08658879 0.005084898 -0.07174509 0.025100311
0.02718129 -0.061657026 0.022687504 0.049324084 -0.06648225 0.085398726 -0.07075576 0.027693743
0.02651492 0.049290095 -0.024172753 0.013703598 0.021399612 0.042145133 0.018184222 -0.07555283
-0.04876218 0.033563167 -0.0991372 -0.029972022 0.03392997 0.002059946 -0.035468798 0.07461281
-0.07093043 0.036276434 0.018335171 0.0028769022 0.040472608 -0.10998234 0.0025596947 -0.0523782
-0.085496716 0.021547597 0.0141334245 0.020803018 0.061731912 -0.096737474 -0.09198866 0.025958745
0.0002739196 0.0032052747 0.033811495 -0.004645862 0.0095484005 0.0084361825 0.04261108 0.01645094
0.03907959 0.041777726 0.0073354314 -0.05688846 0.023616135 -0.063662745 -0.0304347 0.002960803
-0.034960836 0.022472927 0.053963363 -0.07512173 0.034035906 -0.0491283 0.025565494 0.017092815
-0.076719865 -0.011143556 0.0055063562 0.04149745 -0.053506352 -0.060827557 0.032078978 0.0075540505
-0.06064391 0.015710102 0.029448356 0.0075336634 0.033511672 0.01220675 0.034629755 -0.013307448
0.051702593 0.037769817 -0.057897784 0.009825471 -0.03545804 0.015446014 0.053395886 0.011288056
0.029589538 -0.02156113 0.0046274397 -0.0818493 -0.04764151 0.03173964 -0.059877373 0.044285897
0.0073726363 -0.056719225 0.05442473 0.022564214 -0.06532784 0.010654511 -0.06538649 -0.029171215
-0.04828208 0.034367803 0.042510204 0.08961688 0.037396256 0.013947961 -0.026724793 0.027703764
0.036379334 -0.012998544 0.027549217 0.05831416 0.06011928 0.028334264 0.0022251073 0.031740166
-0.058968674 0.027749572 -0.068151735 0.010293108 -0.070121 0.023060605 0.033255395 0.021715226
0.02995891 0.03881429 0.040783968 -0.012103195 0.010011569 -0.04698687 0.012340305 0.034144618
00000000: de47 a0bd ac7e 4c3c 9db6 be3c 52ba d53c
00000010: 4da8 853d 65d1 19bd f40d a1bd 003d 3cbc
00000020: 3bd0 cd3c 45ac 903c 0586 3dbd 1ed7 95bd
00000030: 35f8 4b3d cdc5 123d 30ae 4a3d b608 6d3d
00000040: 4b8a 1bbc dd05 373d d8a1 833c 3bd7 a43c
00000050: f5df 143d af4b 2c3d 1ed0 6fbc b91c 1abd
00000060: 7fa5 63bd 88ab 05bc 12f8 4ebd 0f51 33bc
00000070: 4029 943d 7315 8c3c ddf2 49bb 4fd6 663d
00000080: adef d13c 90ee e53c afe0 413d 5e91 33bd
00000090: 5f5a ed3c 16eb 713d bb94 d0ba 133e 82bd
000000a0: b98d d23c 83fc e5bb 3301 0a3c fdc9 103d
000000b0: b09e 063d edf5 efbd cece 99bc f6a5 5a3c
000000c0: 5cf1 bbbd 2734 143d 26f3 82ba 9473 123d
000000d0: 8c00 82bc da09 533c 404e c6bd 3b39 41bd
000000e0: edd7 16bd e955 2f3d fd95 123d 1d80 04bc
000000f0: 542b ca3c 3b32 10bc 9291 96bc e0d2 bc3c
00000100: 1b15 063d a660 2e3c 7710 083d f997 0cbd
00000110: 3ac7 6ebd e6dc 5cbd 2995 04ba 2996 563c
00000120: 44a5 4f3d 2a8b 4b3c 79dd ba3b 73c8 ff3c
00000130: 363a 913c 7d9d 953c d4fe 8bbd 9a96 97bd
00000140: 3001 91bd a675 95bd d8c7 80bd dffa 57bd
00000150: bcef 0fbd c55d 64bd e3f2 66bd bc94 ae3c
00000160: 657d 693c 551e e4bc 899f f43c 2ded 9fbd
00000170: 66ec 753c cb16 89bd 50a0 a93c e3db 59bc
00000180: 71b0 dd3c fa3c f53c 46e9 52bd 335a 36bd
00000190: 3cb8 0c3d 25d0 52bd cfff 98bd d311 6c3b
000001a0: 2f62 2c3d 5dbf dd3c bab4 333d d3a3 2e3d
000001b0: 9394 4b3d 5287 b93c d50a 92bd ab40 e9bb
000001c0: 9b4c 983d 6b19 24bc 2814 7a3d a37a 8d3d
000001d0: 7755 b1bd 379f a63b 17ef 92bd 2b9f cd3c
000001e0: 4cab de3c 148c 7cbd 25db b93c 0d08 4a3d
000001f0: d927 88bd 87e5 ae3d 65e8 90bd fddd e23c
00000200: d135 d93c 69e4 493d f005 c6bc 0e85 603c
00000210: 3d4e af3c 60a0 2c3d 14f7 943c 71bb 9abd
00000220: daba 47bd 8879 093d 7208 cbbd e387 f5bc
00000230: 27fa 0a3d 2900 073b bb47 11bd 9ace 983d
00000240: f943 91bd 9996 143d a433 963c 698a 3c3b
00000250: 9bc6 253d 6c3e e1bd 8dc0 273b 868a 56bd
00000260: e718 afbd 9684 b03c e18f 673c 176b aa3c
00000270: 9ada 7c3d 4c1e c6bd 8d64 bcbd 6fa7 d43c
00000280: de9c 8f39 960f 523b ec7d 0a3d 513c 98bb
00000290: e570 1c3c ea37 0a3c f588 2e3d 1fc4 863c
000002a0: ec11 203d 1f1f 2b3d 0f5e f03b e003 69bd
000002b0: a076 c13c 9d61 82bd 3152 f9bc 080a 423b
000002c0: 1833 0fbd 2519 b83c b008 5d3d 6cd9 99bd
000002d0: 3c69 0b3d c23a 49bd ba6e d13c 3b06 8c3c
000002e0: 4e1f 9dbd 7693 36bc aa6e b43b 3bf9 293d
000002f0: 7a29 5bbd 5126 79bd 3f65 033d f887 f73b
00000300: c065 78bd 79b2 803c ae3d f13c f3dc f63b
00000310: 8943 093d d2fe 473c eed7 0d3d 7b07 5abc
00000320: 19c6 533d 86b4 1a3d 3a26 6dbd 03fb 203c
00000330: 733c 11bd 4711 7d3c a5b5 5a3d 8af1 383c
00000340: c265 f23c f8a0 b0bc c7a1 973b 9ba0 a7bd
00000350: be23 43bd 6d01 023d fa41 75bd 2165 353d
00000360: 2896 f13b 6b52 68bd 77ec 5e3d 96d8 b83c
00000370: 9aca 85bd 4290 2e3c 5ae9 85bd 79f8 eebc
00000380: 6ec3 45bd 41c5 0c3d 2e1f 2e3d 0e89 b73d
00000390: d12c 193d fd85 643c f4ed dabc 01f3 e23c
000003a0: 7f02 153d d8f7 54bc e5ae e13c d4da 6e3d
000003b0: a23f 763d 421d e83c 1bd3 113b fa01 023d
000003c0: 2389 71bd 1253 e33c 2393 8bbd 6da4 283c
000003d0: 999b 8fbd 98e9 bc3c cf36 083d 21e4 b13c
000003e0: 636c f53c bcfb 1e3d 170d 273d 7b4c 46bc
000003f0: 9007 243c 4e75 40bd fe2e 4a3c 3adb 0b3d
